src/TSP/model_TSP.pt (torch, 17029 bytes, 10 tensors)

city1_net.0.weight f4 [32, 7]
0	0xbe794563	-0.24342875
1	0x3e0fa29a	0.14026871
2	0xbeac94cf	-0.33707282
3	0xbe5c9364	-0.215406
4	0x3d4713af	0.048602756
5	0xbd96ef7a	-0.07369895
6	0x3bab9e4b	0.005237376
7	0x3e31b668	0.17354739
8	0xbe57ccac	-0.2107417
9	0xbe48e0fb	-0.19617073
10	0x3e4a3f50	0.19750714
11	0x3cf9e04b	0.030502459
12	0x3c353e9d	0.011062291
13	0xbdb743ed	-0.08948503
14	0xbcf67f09	-0.030089872
15	0xbea84161	-0.3286238
16	0x3e549912	0.20761517
17	0x3eed4a42	0.46345717
18	0x3d758e35	0.059950072
19	0x3c94b9ec	0.01815506
20	0xbdee6c80	-0.116417885
21	0xbef32cb2	-0.47495037
22	0xbebcb0e7	-0.36853716
23	0x3efa9417	0.4894111
24	0x3ecb532c	0.39711893
25	0xbd4aca73	-0.049509477
26	0xbd1857d1	-0.037193123
27	0x3d95ccc9	0.0731445
28	0x3d2737b3	0.040824603
29	0x3e13bb8d	0.14427014
30	0xbb196212	-0.0023404402
31	0xbdaea319	-0.08527202
32	0x3d0587f9	0.032600377
33	0x3d161e29	0.036649857
34	0x3de77acc	0.113027185
35	0x3d37f123	0.0449077
36	0xbe7d41e9	-0.24732174
37	0x3e552d3e	0.2081804
38	0x3eead1b8	0.45863128
39	0x3d414ffa	0.047195412
40	0x3d76768a	0.06017164
41	0x3dbda5bf	0.09260129
42	0x3dfaee27	0.12252455
43	0x3ed554d6	0.41666287
44	0xbdceafbe	-0.10092114
45	0xbea373af	-0.31924197
46	0x3dac6955	0.08418528
47	0x3dd08f87	0.10183626
48	0x3e9ae702	0.3025437
49	0x3f0621b1	0.5239516
50	0xbdbf0200	-0.09326553
51	0xbf1ed099	-0.62037045
52	0x3df79f0f	0.12090885
53	0x3dbacc6a	0.0912102
54	0xbd3f3efb	-0.046690922
55	0xbd78cf5b	-0.060744625
56	0x3ef4b4f5	0.4779431
57	0xbd89111b	-0.06692716
58	0xbf080e56	-0.53146875
59	0x3d73d652	0.059530564
60	0x3d54b8ec	0.051934168
61	0xbc4c0685	-0.012452726
62	0xbaf699f9	-0.0018814198
63	0x3e37b571	0.17940308
64	0x3ec7339c	0.38906562
65	0xbd71ded6	-0.059050404
66	0xbe8d76ff	-0.2762985
67	0x3e0fa1bc	0.1402654
68	0x3d8cb199	0.068698116
69	0x3e93e848	0.28888154
70	0x3dc21b0b	0.09477814
71	0xbcb9b053	-0.022667086
72	0x3de9b9aa	0.11412366
73	0xbd8440db	-0.06457683
74	0x3d86c6a9	0.0658086
75	0x3cd37329	0.025811749
76	0x3d8f8d47	0.070093684
77	0x3cb30336	0.021852117
78	0x3e6d3d8a	0.23168007
79	0xbc19036d	-0.009339196
80	0xbe19d91d	-0.15024228
81	0x3d766691	0.06015641
82	0x3d8eae0b	0.0696679
83	0x3e333849	0.1750194
84	0x3cdcf13b	0.026970496
85	0x3d5f2dc4	0.054487005
86	0x3cd95eee	0.026534524
87	0xbc877d76	-0.016539317
88	0x3c3cb9e1	0.011518926
89	0x3c74caf1	0.014940963
90	0x3d860668	0.06544191
91	0xbc9a07b7	-0.018802507
92	0x3cfdc842	0.03097928
93	0x3cd887a7	0.026431872
94	0xba82cbbd	-0.0009978932
95	0xbb20551e	-0.0024464796
96	0x3d7ed25e	0.06221234
97	0xbd227a7b	-0.039667588
98	0x3d48c628	0.0490171
99	0x3e025e46	0.12731275
100	0x3cecd0ad	0.028908098
101	0xbce47595	-0.027888099
102	0x3d56ccc3	0.05244137
103	0x3d53a13d	0.05166744
104	0x3e1108e7	0.14163552
105	0xbecde5ac	-0.40214288
106	0xbe30cc8f	-0.17265533
107	0x3ecbef52	0.39831024
108	0x3e224020	0.15844774
109	0xbbab8424	-0.0052342582
110	0x3ce54fa0	0.02799207
111	0xbcb2a6a7	-0.021807982
112	0x3cee9b98	0.029126927
113	0x3e39ca90	0.18143678
114	0xbc8f7a55	-0.017514387
115	0xbe01f79f	-0.12692116
116	0x3d42b018	0.047531217
117	0x3d46c323	0.04852594
118	0x3e054295	0.1301368
119	0xbee53056	-0.4476344
120	0xbe58ef75	-0.21185096
121	0x3ef57182	0.47938162
122	0x3e64b47d	0.22334476
123	0xbd4aa59c	-0.049474344
124	0x3bf6d619	0.0075328466
125	0x3bb1c0e7	0.005424607
126	0x0559daea	1.0243499e-35
127	0x054f82a6	9.7570896e-36
128	0x854c272f	-9.599231e-36
129	0x854aebc3	-9.541297e-36
130	0x855c49a1	-1.0357874e-35
131	0x854f98bd	-9.761147e-36
132	0x8551cebe	-9.865105e-36
133	0x3db803c4	0.08985093
134	0x3dc268c3	0.09492638
135	0x3d8f6977	0.07002538
136	0x3df8acb3	0.12142315
137	0x3dc570d8	0.09640664
138	0x3da38192	0.07983698
139	0x3e53be30	0.2067802
140	0xbf122e62	-0.57102025
141	0xbdd7682c	-0.10517916
142	0x3f14ecb3	0.58173674
143	0x3da39f88	0.079894125
144	0xbcc7627a	-0.02433895
145	0x3d49b1ff	0.049242016
146	0xbdc7e056	-0.097595856
147	0x3d549da5	0.051908154
148	0xbf2c256e	-0.67244613
149	0xbd4d1ade	-0.05007445
150	0x3f385f8a	0.7202078
151	0x3d2d417b	0.042298775
152	0x3c980d5e	0.018561061
153	0xbed0d68e	-0.40788692
154	0x3f1f217f	0.62160486
155	0xbe4f12c1	-0.20221998
156	0xbf2ceab8	-0.6754565
157	0x3e7b1798	0.24520719
158	0x3d65b00a	0.056076087
159	0xbc9f41f7	-0.019440634
160	0xbdb05dba	-0.08611627
161	0x8558956f	-1.0183718e-35
162	0x0560650c	1.0550989e-35
163	0x856af286	-1.1047172e-35
164	0x854c2e5d	-9.6005495e-36
165	0x85663b9d	-1.0825497e-35
166	0x055f70c1	1.0506119e-35
167	0x8554f790	-1.0013662e-35
168	0xbf10eb2f	-0.5660886
169	0xbf26eda7	-0.6520638
170	0x3f0442cb	0.5166442
171	0x3f23e397	0.6401915
172	0x3cf8bb89	0.030362861
173	0x3bc96cb1	0.00614699
174	0xbbb846ec	-0.005623689
175	0x3f2cadad	0.6745251
176	0x3d494d21	0.04914582
177	0xbf462612	-0.7740184
178	0xbd8138c9	-0.06309659
179	0x3dd0e954	0.10200754
180	0x3b4b7572	0.0031045345
181	0x3d41c677	0.04730841
182	0xba0aa2c0	-0.0005288534
183	0x3aeb4d2d	0.0017952077
184	0xbb8dd2b7	-0.0043280977
185	0xba9f136a	-0.0012136523
186	0xbc0414ee	-0.008061631
187	0x3b9003b7	0.004394974
188	0xb7f90add	-2.9688172e-05
189	0x3de3bcd1	0.11119998
190	0x3c586f74	0.013210166
191	0x3de82075	0.11334316
192	0xbd9b9f9d	-0.07598803
193	0x3d62b209	0.05534557
194	0xbc9b9164	-0.018990226
195	0xbb32eaf3	-0.0027300685
196	0xb804ccc3	-3.166195e-05
197	0xb0fdc64a	-1.846453e-09
198	0xac83cf73	-3.7462754e-12
199	0xb7e1a2ff	-2.6897991e-05
200	0xb730c75d	-1.0536835e-05
201	0xb4974fb1	-2.8183925e-07
202	0xb648182f	-2.98164e-06
203	0xbd9b6bdd	-0.07588933
204	0x3e1c06a1	0.15236904
205	0xbe5f2bf0	-0.21794105
206	0xbcb89b8a	-0.022535104
207	0xbd09649f	-0.033543225
208	0xbd4a0333	-0.049319457
209	0x3dae843f	0.08521318
210	0x3ecefccc	0.40427244
211	0xbef676a9	-0.48137406
212	0xbf07143c	-0.5276525
213	0x3ee97fc6	0.45605296
214	0x3ded78af	0.11595284
215	0x3c026a1c	0.007959869
216	0xbe42f68a	-0.1903936
217	0x3bc451a0	0.005991176
218	0x3a9333d5	0.0011230657
219	0x3d2d6408	0.042331725
220	0x3a964ffa	0.0011467927
221	0x3c253083	0.010082367
222	0xbc7d2e9a	-0.015453005
223	0x3b94594c	0.0045272466

city1_net.0.bias f4 [32]
0	0x3e8efabf	0.2792568
1	0xbc831b2d	-0.01600417
2	0xbdb5fbe6	-0.088859364
3	0x3c1845c0	0.009293973
4	0x3e05e3cf	0.13075183
5	0x3e38b59b	0.18038027
6	0x3eaa2145	0.33228508
7	0x3a347c0f	0.0006884941
8	0x3bebeb0e	0.0071996516
9	0x3ea4454c	0.3208412
10	0xbc68215f	-0.014168113
11	0x3e51a1c9	0.20471872
12	0x3d9a4fb5	0.07534734
13	0xbbfe32c7	-0.007757518
14	0x3e37b7fd	0.1794128
15	0xb936efc9	-0.000174462
16	0x3e175870	0.1477983
17	0xbbeeb627	-0.007284898
18	0x8571a929	-1.1362835e-35
19	0x3e964420	0.2934885
20	0xbb82eca6	-0.003995496
21	0xbca455cc	-0.020060442
22	0x3a93d3ac	0.0011278293
23	0x856102cb	-1.0579962e-35
24	0xba8146f4	-0.0009863065
25	0x3c1a8231	0.009430454
26	0xbb69375e	-0.003558598
27	0xbdfa3277	-0.12216657
28	0xb92ecabb	-0.00016669456
29	0x3da4a618	0.08039492
30	0xbc572c2d	-0.013133091
31	0x3c9f41ed	0.019440616

city1_net.2.weight f4 [32, 32]
0	0xbdbd6043	-0.09246876
1	0x3dc950ca	0.098298624
2	0x3e087218	0.13324773
3	0x3e7eec62	0.2489486
4	0xbc96d05a	-0.018409897
5	0x3df9f422	0.12204768
6	0xbdb4fc0e	-0.08837138
7	0x3e618d10	0.22026467
8	0x3e395dba	0.1810216
9	0xbd9b4833	-0.0758213
10	0xbcb9915d	-0.022652322
11	0xbd07427c	-0.03302239
12	0x3b4e672e	0.0031494605
13	0x3cd89cef	0.02644202
14	0xbb797388	-0.0038063247
15	0x3e31ad79	0.17351331
16	0xbceb954a	-0.02875771
17	0x3e53fa50	0.20700955
18	0x855442b9	-9.980447e-36
19	0x3ce829f6	0.028340321
20	0x3e83e5fe	0.25761408
21	0x3e77dddc	0.24205726
22	0x3e8f3e51	0.2797723
23	0x0559cc82	1.0240853e-35
24	0x3ea7fc07	0.3280947
25	0x3e7af2ec	0.2450673
26	0x381a3c3e	3.6772566e-05
27	0xbcb7852c	-0.022402368
28	0x054a36c2	9.508052e-36
29	0xbd42e654	-0.04758294
30	0x3e8a6f03	0.2703782
31	0x3bc948b2	0.006142699
32	0x3d819e12	0.06328978
33	0xbd480c95	-0.048840124
34	0xbc0d72ec	-0.008633357
35	0xbe0f3ef9	-0.13988866
36	0x3d4b4dc1	0.0496347
37	0x3d539ef2	0.051665254
38	0x3e11d1b7	0.14240156
39	0xbe16e5ee	-0.14736149
40	0xbdee27d0	-0.116286874
41	0x3e11c73b	0.14236157
42	0x3cfaa119	0.030594395
43	0x3d9f77e0	0.07786536
44	0x3cd2a275	0.025712231
45	0xbca0ae2d	-0.019614303
46	0x3d8c345b	0.068459235
47	0xbdceb705	-0.10093502
48	0x3d676c1a	0.056499578
49	0xbdf502b4	-0.11963406
50	0x8553ce49	-9.959061e-36
51	0x3ddaf857	0.10691898
52	0xbe2740e8	-0.16333354
53	0xbdf67f13	-0.12035956
54	0xbe452f3d	-0.19256301
55	0x854fb5e3	-9.7665005e-36
56	0xbe4638cd	-0.19357605
57	0xbe3131eb	-0.17304198
58	0x35cb0b60	1.5127989e-06
59	0x3c5ccbfe	0.01347637
60	0x855380b6	-9.944813e-36
61	0x3d16c79a	0.03681145
62	0xbe30ef9f	-0.17278908
63	0x3bd98ce8	0.006639112
64	0x3d5e6507	0.054295566
65	0xbd3526df	-0.044226523
66	0xbbed94fe	-0.0072504273
67	0xbe03150e	-0.12801
68	0x3d34535e	0.044024818
69	0x3d4bd89e	0.04976713
70	0x3e02ebd1	0.1278527
71	0xbe035ff1	-0.12829567
72	0xbdcfb37c	-0.10141656
73	0x3e030fd5	0.12799008
74	0x3cd3a3b1	0.02583489
75	0x3d8da408	0.06916052
76	0x3cc8d241	0.02451432
77	0xbc980c0d	-0.018560434
78	0x3d7d7be3	0.061885726
79	0xbdb64648	-0.08900124
80	0x3d4c31ff	0.049852367
81	0xbddc220c	-0.107486814
82	0x0559726b	1.0224306e-35
83	0x3dc8fded	0.098140575
84	0xbe14b0a6	-0.14520511
85	0xbde529a9	-0.11189587
86	0xbe2cab33	-0.16862182
87	0x855ec33a	-1.0474247e-35
88	0xbe32c3d3	-0.17457514
89	0xbe1abf39	-0.15112008
90	0x35d82b3e	1.6105839e-06
91	0x3c2cb63a	0.010541493
92	0x054dd206	9.677629e-36
93	0x3d00fb28	0.03148952
94	0xbe1a2d96	-0.15056452
95	0x3bcdb8ce	0.006278134
96	0x3d81a13d	0.06329582
97	0xbd4de251	-0.05026466
98	0xbc4725f2	-0.012155043
99	0xbe101804	-0.14071661
100	0x3d4d3ab3	0.050104808
101	0x3d48de26	0.049039982
102	0x3e12f77f	0.14352225
103	0xbe15a788	-0.1461469
104	0xbded10e3	-0.115754865
105	0x3e12cd2d	0.14336081
106	0x3cf20f5d	0.029548341
107	0x3da0e301	0.078557976
108	0x3cdac1b9	0.026703702
109	0xbca20c39	-0.019781219
110	0x3d8de883	0.06929114
111	0xbdcf2d38	-0.10116047
112	0x3d697235	0.056993682
113	0xbdf5d329	-0.12003166
114	0x854be850	-9.587683e-36
115	0x3ddf128c	0.108922094
116	0xbe28b4fc	-0.1647529
117	0xbe02bcf4	-0.12767392
118	0xbe4592a7	-0.19294225
119	0x8553a760	-9.951914e-36
120	0xbe48b39c	-0.19599766
121	0xbe325a5f	-0.17417286
122	0x35c516ca	1.4684276e-06
123	0x3c5df17f	0.013546347
124	0x054ff58a	9.7781916e-36
125	0x3d189194	0.03724821
126	0xbe3231cd	-0.1740181
127	0x3bd1a768	0.00639813
128	0xbdd7b299	-0.10532112
129	0x3de1ec9e	0.11031459
130	0x3e1b4493	0.15162878
131	0x3e8f3b4c	0.27974927
132	0xbcacac80	-0.021078348
133	0x3e0f9cab	0.14024608
134	0xbdcd4072	-0.100220576
135	0x3e7c8797	0.24661098
136	0x3e4fd13a	0.20294657
137	0xbdb31fba	-0.08746286
138	0xbcd6006d	-0.02612325
139	0xbd19f991	-0.03759152
140	0x3b452c97	0.0030086392
141	0x3ce56d13	0.028006112
142	0xbb8b96eb	-0.004259934
143	0x3e463ec9	0.19359888
144	0xbd066c01	-0.032817844
145	0x3e6cba67	0.23117982
146	0x055bd8fa	1.0337183e-35
147	0x3d0606f0	0.03272146
148	0x3e93e4d7	0.28885528
149	0x3e8b3c78	0.27194571
150	0x3e9fc89c	0.3120774
151	0x0564d40f	1.07594575e-35
152	0x3ebf5fa2	0.3737765
153	0x3e8b9cdf	0.2726812
154	0x382148d7	3.845323e-05
155	0xbcd739ba	-0.026272643
156	0x854b7272	-9.5660344e-36
157	0xbd5f7628	-0.054556042
158	0x3e9a6fae	0.3016333
159	0x3bf728fa	0.0075427266
160	0xbe1bbb6d	-0.15208216
161	0x3e1c369b	0.15255205
162	0x3e6254fe	0.22102734
163	0x3ec67a1e	0.38765043
164	0xbd07da5a	-0.03316722
165	0x3e56a88c	0.20962733
166	0xbe175056	-0.1477674
167	0x3eb4a021	0.3527842
168	0x3e938ee4	0.28819954
169	0xbe02e072	-0.12780932
170	0xbd234f0c	-0.039870307
171	0xbd699cb5	-0.057034213
172	0x3ac792f8	0.0015226295
173	0x3d088532	0.03333015
174	0xbc070de2	-0.008243056
175	0x3e89986a	0.26874095
176	0xbd4d71da	-0.050157405
177	0x3e9e9e51	0.3098016
178	0x854e8d5d	-9.712038e-36
179	0x3d446f5d	0.047957767
180	0x3ecfb500	0.4056778
181	0x3ec4acc1	0.3841305
182	0x3ee3fbd9	0.44528082
183	0x855d8a15	-1.0416732e-35
184	0x3f067670	0.5252447
185	0x3ed23055	0.410525
186	0x38195c32	3.6563906e-05
187	0xbd2709d0	-0.040780842
188	0x055eaf6d	1.04706105e-35
189	0xbda2aaae	-0.07942711
190	0x3ed41fc4	0.41430485
191	0x3c49633c	0.012291726
192	0x3d6e0eb4	0.05811949
193	0xbd405b39	-0.046961997
194	0xbc350b42	-0.011050047
195	0xbe07bcf6	-0.13255677
196	0x3d3ed150	0.046586335
197	0x3d3f08d4	0.04663928
198	0x3e0a09a0	0.13480234
199	0xbe0c5cb4	-0.13707238
200	0xbdddbbea	-0.108268574
201	0x3e0a6692	0.1351569
202	0x3cdeba7b	0.02718853
203	0x3d9680e4	0.07348803
204	0x3cc93cbb	0.024565091
205	0xbc9cf0e7	-0.01915784
206	0x3d845f9c	0.064635485
207	0xbdc0c105	-0.094118156
208	0x3d59dcab	0.05318896
209	0xbde798ae	-0.11308418
210	0x0551a81f	9.858012e-36
211	0x3dd1020a	0.10205467
212	0xbe1d8327	-0.15382062
213	0xbdf7cfaf	-0.121001594
214	0xbe37f0d2	-0.1796296
215	0x855cd10d	-1.0382747e-35
216	0xbe39c8ff	-0.1814308
217	0xbe2603bc	-0.16212362
218	0x35dba0ec	1.6363606e-06
219	0x3c405232	0.011738347
220	0x855ef544	-1.0483438e-35
221	0x3d0c87bb	0.03430913
222	0xbe24a979	-0.16080274
223	0x3bc8ad8c	0.006124204
224	0x3d86cfd8	0.06582612
225	0xbd56c1fc	-0.05243109
226	0xbc393a95	-0.011305471
227	0xbe140854	-0.14456302
228	0x3d5214d5	0.0512894
229	0x3d52e893	0.05149133
230	0x3e15fb42	0.14646628
231	0xbe1cbfb5	-0.15307505
232	0xbdf83c89	-0.12120921
233	0x3e1512e1	0.14557983
234	0x3cf937b0	0.030422062
235	0x3da4920c	0.08035669
236	0x3ce66e72	0.028128836
237	0xbca4497b	-0.02005457
238	0x3d91335a	0.07089873
239	0xbdd23214	-0.10263458
240	0x3d6e5bba	0.058192946
241	0xbdfaa08a	-0.12237652
242	0x854931e7	-9.46014e-36
243	0x3de373f0	0.11106098
244	0xbe2cc2ec	-0.16871232
245	0xbe04b5a3	-0.12959914
246	0xbe4c0e66	-0.19927368
247	0x85608972	-1.0557674e-35
248	0xbe4b6fe2	-0.19866899
249	0xbe39caab	-0.18143718
250	0x35d43b10	1.581242e-06
251	0x3c681468	0.0141650215
252	0x855706e6	-1.01105185e-35
253	0x3d2134a3	0.03935684
254	0xbe36108b	-0.17779748
255	0x3bf4d69b	0.007471872

city1_net.2.bias f4 [32]
0	0x3d31b72d	0.04338758
1	0x3e27a803	0.16372685
2	0x3e1876f0	0.14889121
3	0x3e2c6bec	0.16838044
4	0x3d4c2b65	0.04984607
5	0x3d980938	0.07423633
6	0x3e1e7422	0.15473989
7	0x3e2f8383	0.17140011
8	0x3e58df74	0.2117899
9	0x3e254d1f	0.161427
10	0x3d4ed18b	0.050492804
11	0x3e251cd9	0.16124286
12	0x3d4c4266	0.04986801
13	0x3e12854d	0.14308663
14	0x3cb497a2	0.02204496
15	0x3cb7324e	0.022362854
16	0x3c942264	0.018082805
17	0xb6d12aa5	-6.23365e-06
18	0x3d600cfb	0.05469988
19	0x3d49b67f	0.049246307
20	0x3e4f9235	0.20270617
21	0x855e58fc	-1.0454734e-35
22	0x3d929401	0.07157136
23	0x3d29d7f8	0.04146573
24	0x3e3aed9b	0.18254702
25	0x3e5bcdd6	0.21465239
26	0x3d2d9db9	0.042386744
27	0x3e141913	0.1446269
28	0x3e25ad3a	0.16179362
29	0x3e59058a	0.21193519
30	0x3d178604	0.03699304
31	0x3d85d015	0.06533829

city1_net.4.weight f4 [1, 32]
0	0x3f617b08	0.88078356
1	0xbf0f5c73	-0.5600044
2	0xbefee8fc	-0.49787128
3	0xbf1098cc	-0.5648315
4	0x3f7dc5fb	0.9913022
5	0x3fb3c46b	1.4044317
6	0xbf06cd47	-0.5265698
7	0xbf148189	-0.58010155
8	0xbf3aa390	-0.72905827
9	0xbf0eac5e	-0.5573176
10	0x3f82d860	1.0222282
11	0xbf0873c1	-0.53301626
12	0x3f80100d	1.0004898
13	0xbef8406e	-0.48486656
14	0x3ef70429	0.4824536
15	0x3efb4aa1	0.49080375
16	0x3e982f21	0.29723457
17	0x38027412	3.1102514e-05
18	0x3f897267	1.0738038
19	0x3f77c723	0.96788234
20	0xbf3407d2	-0.7032443
21	0x05571459	1.0112989e-35
22	0x3fb255c3	1.3932422
23	0x3f57839e	0.84185207
24	0xbf1eb11b	-0.6198899
25	0xbf3e958f	-0.7444696
26	0x3f5cf1e6	0.8630661
27	0xbefabfd8	-0.4897449
28	0xbf0cc63c	-0.5498998
29	0xbf3f06a8	-0.7461953
30	0x3f43d8a6	0.76502454
31	0x3f9cb7fc	1.2243648

city2_net.0.weight f4 [32, 13]
0	0x3e398967	0.18118821
1	0x3d92ea1f	0.07173561
2	0xbe1a6276	-0.15076622
3	0xbe04587d	-0.1292438
4	0x3d4f3e36	0.05059644
5	0x3c814a2d	0.01578244
6	0x3e66335e	0.22480533
7	0x3d70d2a4	0.058794633
8	0xbe6f132d	-0.23347159
9	0xbe21230d	-0.15736027
10	0xbdb9bf49	-0.09069688
11	0x3e1a1d48	0.15050232
12	0x3dd44484	0.10364631
13	0xbd98e978	-0.07466406
14	0xbeca2712	-0.39482933
15	0x3de63d67	0.1124218
16	0x3ec9164f	0.39274833
17	0xbc371699	-0.011174821
18	0xbc91b3c1	-0.017785909
19	0xbdf8c159	-0.12146253
20	0xbf0a9dd8	-0.541471
21	0x3dea7324	0.114477426
22	0x3f1a042d	0.6016262
23	0xbd290316	-0.04126271
24	0xbd6c3e3d	-0.057676543
25	0xbdd883ae	-0.10571991
26	0x3ebe2e18	0.37144542
27	0xbde1c5e1	-0.110240705
28	0xbe94fa62	-0.29097277
29	0x3d920aef	0.07130992
30	0xbc76d63a	-0.015065724
31	0xbc615602	-0.013753416
32	0x3efa32a8	0.48866773
33	0xbe45d5bb	-0.19319813
34	0xbf10ae8c	-0.5651634
35	0x3e8cf48d	0.27530327
36	0xbc59a30c	-0.013283502
37	0xbd3c7045	-0.046005506
38	0xbdf99a82	-0.12187673
39	0x854ef350	-9.730763e-36
40	0x85596add	-1.0222919e-35
41	0x854e6c29	-9.705939e-36
42	0x855795fe	-1.01368006e-35
43	0x855aa8c9	-1.0281312e-35
44	0x854f933d	-9.7601366e-36
45	0x855e4faa	-1.0453022e-35
46	0x854f2a7c	-9.7408964e-36
47	0x056084a6	1.0556793e-35
48	0x855feefa	-1.0529303e-35
49	0x8553f078	-9.9653395e-36
50	0x854aca70	-9.535176e-36
51	0x85518fe3	-9.8535606e-36
52	0x3d9229da	0.07136889
53	0x3d459363	0.048236262
54	0x3d6960c9	0.056977067
55	0x3deaae28	0.11458999
56	0x3da3d888	0.080002844
57	0x3d3d0e3a	0.046156146
58	0x3c85571c	0.016276889
59	0xbb72e109	-0.00370604
60	0x3cadd6d0	0.021220595
61	0x3d234621	0.039861802
62	0x3d570aa1	0.05250037
63	0x3d37ef49	0.044905934
64	0x3d9ed387	0.077551894
65	0xbe7a7db4	-0.24462014
66	0x3c1ac83c	0.009447154
67	0x3e9c360f	0.30509993
68	0xbd95ff07	-0.07324033
69	0x3ce5486a	0.027988631
70	0x3b5a9fa0	0.0033359304
71	0xbefdb16b	-0.49549422
72	0x3d673a38	0.056452006
73	0x3ead547a	0.33853513
74	0xbd4d0477	-0.050053086
75	0x3d4a97fc	0.04946135
76	0x3cb332f5	0.021874884
77	0xbd2ca5d6	-0.04215034
78	0x3d21d1e7	0.03950682
79	0xbe5ddafb	-0.21665566
80	0xbce22fd5	-0.027610699
81	0x3e5a3111	0.2130778
82	0xbc5345ea	-0.012895087
83	0xbce35632	-0.027751062
84	0xbced0887	-0.02893473
85	0xbea9229e	-0.33034223
86	0xbcbdbf6d	-0.023162568
87	0x3eabf10f	0.3358235
88	0x3cdb0a87	0.026738418
89	0xbb4ec397	-0.0031549686
90	0x3d3d5418	0.046222776
91	0x3d406515	0.0469714
92	0x3cf93bc1	0.030424
93	0x3cdf967a	0.027293433
94	0x3daa439e	0.08313678
95	0x3d8f9986	0.07011704
96	0x3c687a1e	0.014189271
97	0x3ddab9c5	0.10679964
98	0x3d03d20e	0.032182746
99	0x3dc601a2	0.0966828
100	0x3be8dbbe	0.0071062734
101	0x3dac43fd	0.08411405
102	0xbcdfd7c0	-0.027324557
103	0x3da4da63	0.080494665
104	0x3eb70b29	0.35750702
105	0x3e889745	0.2667791
106	0xbe9ba7f1	-0.30401567
107	0xbe8505d1	-0.25981
108	0x3d402ed4	0.04691966
109	0xbcdebe74	-0.027190425
110	0x3efafdaa	0.49021655
111	0x3e9f965d	0.31169406
112	0xbf0c0f8a	-0.5471121
113	0xbeb365c6	-0.35038584
114	0xbd806c03	-0.062706016
115	0x3dce3bfb	0.10070034
116	0xbceb7b3f	-0.028745292
117	0x3da48111	0.0803243
118	0x3d2ef389	0.042712722
119	0x3d63908a	0.055557765
120	0x3e129687	0.14315234
121	0x3de53b3c	0.11192939
122	0x3d13cbd2	0.03608305
123	0x3df5557b	0.11979195
124	0x3d9189ab	0.07106336
125	0x3e2d5efa	0.16930762
126	0x3b9b0c50	0.0047316924
127	0x3e257e14	0.16161376
128	0xbc30187e	-0.010748027
129	0x3e0bd79f	0.13656472
130	0xbd2ed7f7	-0.04268643
131	0x3bf69c70	0.007525973
132	0x3f474e10	0.7785349
133	0x3d05445c	0.032535896
134	0x3c1d7bc5	0.0096120285
135	0xbb277cd3	-0.0025556579
136	0x3d9ecfbe	0.077544674
137	0xbcf03d31	-0.029326053
138	0xbf4ffd97	-0.8124632
139	0xbce16be1	-0.027517261
140	0xbacc5804	-0.0015590196
141	0x3b7ebcaf	0.0038869788
142	0xbca996a5	-0.020701716
143	0x3ecc529e	0.39906782
144	0x3eadfd1c	0.3398217
145	0x3ea3642b	0.3191236
146	0x3ebac38b	0.36477312
147	0x3cab17fe	0.020885464
148	0x3c90be6c	0.017668925
149	0xbeccb389	-0.39980724
150	0xbe95c877	-0.29254505
151	0xbea70d3c	-0.32627285
152	0xbeb69dce	-0.3566727
153	0x3c0c7735	0.008573343
154	0xbd5fc771	-0.05463356
155	0x3d193188	0.037400752
156	0x3d7c5b47	0.061610486
157	0x3d388353	0.045047116
158	0x3d420c8a	0.04737524
159	0x3dc8efc1	0.098113544
160	0x3d8c1c6f	0.06841361
161	0x3d1fdec6	0.039030813
162	0x3bd3ccd3	0.006463626
163	0xbc00ba4c	-0.007856917
164	0x3c43935c	0.011936989
165	0x3cd7dbd1	0.026349934
166	0x3d1c04d1	0.03809053
167	0x3d1111af	0.035417255
168	0x3d818d8c	0.06325826
169	0x3ebaa220	0.36451817
170	0x3c857505	0.01629115
171	0xbeb3c24a	-0.35109168
172	0xbc91b1e1	-0.017785015
173	0x3d8add73	0.06780519
174	0xbd185289	-0.037188087
175	0x3ec706c1	0.3887234
176	0xbdd46891	-0.10371507
177	0xbf1fa0a5	-0.623545
178	0x3d5ad39c	0.053424463
179	0x3ddf0504	0.108896285
180	0x3daa5682	0.08317281
181	0xbde6b0ce	-0.112641916
182	0x3f334c87	0.70038646
183	0xbf1a6589	-0.6031118
184	0x3e008d10	0.12553811
185	0xbdd9cb31	-0.10634459
186	0xbc00b4ec	-0.007855635
187	0xbcb8406d	-0.022491658
188	0xbf2fa35c	-0.6860864
189	0x3f101087	0.5627522
190	0xbde8fe15	-0.11376587
191	0x3dfcc633	0.12342491
192	0x3aa4347a	0.0012527846
193	0x3c64ac01	0.013957025
194	0xbc42a8c9	-0.011881062
195	0xbe99701f	-0.29968354
196	0x3e4f6051	0.20251586
197	0x3ec9fda9	0.3945134
198	0xbe886a39	-0.2664354
199	0x3cee3ff8	0.029083237
200	0xbda630f0	-0.08114803
201	0xbf0c6c1a	-0.5485245
202	0x3e7f46ee	0.24929401
203	0x3ed33bcf	0.41256568
204	0xbe9dcf09	-0.30822018
205	0xbbc8e0e2	-0.0061303237
206	0x3e1fad60	0.15593481
207	0xbe332b2e	-0.1749694
208	0x8553f51f	-9.966194e-36
209	0x854a1174	-9.5012e-36
210	0x85576b13	-1.0128918e-35
211	0x855b8e04	-1.0323415e-35
212	0x855d56ec	-1.0407335e-35
213	0x8560666a	-1.055124e-35
214	0x85537711	-9.9430414e-36
215	0x85521c25	-9.879322e-36
216	0x855e644e	-1.0456813e-35
217	0x855777e1	-1.013127e-35
218	0x85554590	-1.00279885e-35
219	0x8557166f	-1.0113372e-35
220	0x05601947	1.0537072e-35
221	0xbea89da9	-0.32932785
222	0xbdf997ca	-0.121871546
223	0x3ef6a2d2	0.48171097
224	0x3de7aa3b	0.11311766
225	0xbd052d54	-0.03251393
226	0x3ccc504a	0.024940629
227	0xbf3ca8ad	-0.7369488
228	0xbe6c2966	-0.23062667
229	0x3f14b3b6	0.5808672
230	0x3e6fbaf9	0.23411168
231	0xbce8febc	-0.02844178
232	0x3d115506	0.035481475
233	0xbd276f51	-0.040877644
234	0xbe8394bc	-0.25699413
235	0xbea9da26	-0.33174247
236	0x3ebb13b1	0.3653846
237	0x3eb78182	0.35840994
238	0xbc21c3e3	-0.009873363
239	0xbccb7176	-0.024834376
240	0xbefc1129	-0.49231842
241	0xbf05e96a	-0.52309287
242	0x3e99d1cd	0.30042878
243	0x3f04bc92	0.51850235
244	0x3da32a2b	0.07967027
245	0xbd0bc0b3	-0.03411932
246	0xbd91bbaa	-0.07115872
247	0x3da7f91f	0.08201813
248	0xbec0f7f3	-0.3768917
249	0x3ef8b715	0.4857718
250	0xbf272ade	-0.65299785
251	0xbd16cbf6	-0.036815606
252	0x3c05f64c	0.0081763975
253	0xbd48c3ae	-0.04901474
254	0x3ea8b6bc	0.32951915
255	0xbf015813	-0.50525016

city2_net.0.bias f4 [32]
0	0x3c620272	0.013794528
1	0xbc2f201d	-0.010688809
2	0x3cb69242	0.022286538
3	0x8550f4c0	-9.8250665e-36
4	0x3e143a6d	0.14475413
5	0x3cdd204e	0.026992943
6	0xbbbd0635	-0.005768562
7	0x3dd09ef9	0.10186572
8	0x3ca334f2	0.019922707
9	0x3e320044	0.17382914
10	0x3bc37618	0.0059650056
11	0xbc71b14a	-0.014751742
12	0x3df90e0f	0.121608846
13	0x3d4252fd	0.047442425
14	0xbc4c6a11	-0.01247646
15	0x3d0d52e7	0.03450289
16	0x85595e8d	-1.0220657e-35
17	0x3cd16fc5	0.025565991
18	0x3c807035	0.015678504
19	0x3b673bb9	0.00352834
20	0x855dbda0	-1.0426199e-35
21	0xbc4a3c01	-0.012343408
22	0xbc073e94	-0.008254666
23	0x3e4fe92e	0.20303795
24	0x855aa96c	-1.02814286e-35
25	0xbba22636	-0.0049484028
26	0x3cbc318f	0.02297285
27	0x856146a3	-1.0592423e-35
28	0x3d9b0236	0.07568781
29	0xbd11f061	-0.035629634
30	0x3bdd998f	0.0067626904
31	0x3dd3d1ca	0.103427485

city2_net.2.weight f4 [32, 32]
0	0x3dbc216d	0.09186063
1	0x3e4a7d7a	0.19774428
2	0x3e442af3	0.19157009
3	0x054fa0a1	9.762596e-36
4	0x3ce8cb97	0.028417392
5	0x3e0a49bf	0.13504694
6	0x3de01653	0.10941758
7	0x3c0f5f33	0.008750725
8	0x3e3bf631	0.18355633
9	0x3c6621db	0.014046158
10	0xbe8c141f	-0.273591
11	0xbe7269dd	-0.23673196
12	0x3cc8896c	0.02447959
13	0x3e2ab748	0.16671479
14	0xbeb7af36	-0.35875863
15	0x3e3083cd	0.17237778
16	0x855e8069	-1.0461975e-35
17	0x3e72b713	0.2370265
18	0x3e66b958	0.2253164
19	0xbec498ec	-0.3839792
20	0x0559b0ab	1.023574e-35
21	0xbec36e37	-0.38170025
22	0xbebbc8a1	-0.36676505
23	0x3d1c7071	0.03819317
24	0x85581774	-1.0160579e-35
25	0xbea03904	-0.312935
26	0x3e3969b5	0.1810673
27	0x055111f8	9.830433e-36
28	0x3c86ad70	0.016440123
29	0x3e35b6a7	0.17745458
30	0x3e59b5e3	0.2126079
31	0x3caf1b6f	0.021375386
32	0xbd831584	-0.06400588
33	0xbdd902aa	-0.10596211
34	0xbdf426cf	-0.11921465
35	0x0548c802	9.4406904e-36
36	0x3d809541	0.06278468
37	0xbdbb33c3	-0.09140732
38	0xbd3f9eae	-0.046782188
39	0x3d8bda03	0.06828692
40	0xbe0aa712	-0.13540295
41	0x3de55fb0	0.111998916
42	0x3e75d350	0.2400639
43	0x3e5bfcca	0.2148315
44	0x3d526c07	0.051372554
45	0xbdd028c7	-0.10164028
46	0x3e9f978d	0.31170312
47	0xbe0a253e	-0.1349077
48	0x85578eb5	-1.01354626e-35
49	0xbe194b5b	-0.14970152
50	0xbe043abb	-0.12913029
51	0x3ea6d26a	0.32582408
52	0x855b2192	-1.03034964e-35
53	0x3eaf09f6	0.34187287
54	0x3ea8701e	0.3289804
55	0x3dbbd929	0.091722794
56	0x854b637e	-9.563288e-36
57	0x3e86c70f	0.26323745
58	0xbde64901	-0.11244393
59	0x055539a5	1.00257995e-35
60	0x3cf0be5a	0.029387642
61	0xbdc1ea66	-0.09468536
62	0xbddbb5b3	-0.10728016
63	0x3d2e1c80	0.04250765
64	0xbd8aed84	-0.06783584
65	0xbde09980	-0.10966778
66	0xbe019b40	-0.1265688
67	0x05521bbe	9.879248e-36
68	0x3d8c6e99	0.06857032
69	0xbdc4f252	-0.096165314
70	0xbd44d2a8	-0.04805246
71	0x3d96aa5b	0.073567115
72	0xbe121371	-0.14265229
73	0x3df57bff	0.11986541
74	0x3e8238ed	0.25434056
75	0x3e684498	0.22682416
76	0x3d67ea68	0.05662003
77	0xbddcb767	-0.10777169
78	0x3ea7e7f3	0.3279415
79	0xbe129c19	-0.14317359
80	0x854b5ac4	-9.561685e-36
81	0xbe214539	-0.15749063
82	0xbe0868e4	-0.13321263
83	0x3eaf713a	0.34266073
84	0x0552ae5e	9.906179e-36
85	0x3eb8a45e	0.36062902
86	0x3eb15524	0.3463527
87	0x3dca6e08	0.09884268
88	0x855b468d	-1.0310289e-35
89	0x3e8e4967	0.27790377
90	0xbdf34676	-0.11878674
91	0x055cd2a4	1.0383039e-35
92	0x3d098235	0.03357144
93	0xbdc8738b	-0.09787663
94	0xbde69efa	-0.11260791
95	0x3d41de0e	0.04733091
96	0x3dfa02f0	0.122075915
97	0x3e88624e	0.266375
98	0x3e8318de	0.2560491
99	0x054855be	9.419703e-36
100	0x3d19373a	0.037406184
101	0x3e3c8f99	0.18414153
102	0x3e17361f	0.1476674
103	0x3bfb385b	0.00766663
104	0x3e819187	0.2530634
105	0x3c624bc1	0.013812006
106	0xbec13e3c	-0.37742794
107	0xbea6822c	-0.32521188
108	0x3d0390b9	0.03212044
109	0x3e684286	0.22681627
110	0xbef471cf	-0.4774308
111	0x3e76927b	0.24079315
112	0x8550f836	-9.825702e-36
113	0x3ea54bee	0.32284492
114	0x3e9cdd57	0.3063762
115	0xbf03bd34	-0.51460576
116	0x8561f095	-1.0623637e-35
117	0xbf045a4b	-0.51700276
118	0xbefea6d2	-0.4973665
119	0x3d4f02e3	0.050539862
120	0x85533530	-9.930941e-36
121	0xbedb7d74	-0.4286915
122	0x3e791b76	0.24326882
123	0x0557c6bf	1.0145755e-35
124	0x3cafb954	0.021450676
125	0x3e77b2db	0.24189322
126	0x3e951379	0.2911642
127	0x3ce5078a	0.027957696
128	0x3db6b5c9	0.089213915
129	0x3e4464f6	0.19179139
130	0x3e3e5e76	0.18590721
131	0x0561a5cf	1.06099034e-35
132	0x3ce1c958	0.027561828
133	0x3e05f72e	0.13082573
134	0x3dd91d33	0.106012724
135	0x3c0f6063	0.008751008
136	0x3e35b45c	0.17744583
137	0x3c63f525	0.0139134275
138	0xbe876e80	-0.26451492
139	0xbe6a9294	-0.22907478
140	0x3cc2a093	0.023758208
141	0x3e255131	0.16144253
142	0xbeb2486e	-0.34820884
143	0x3e2aa693	0.16665106
144	0x0550d745	9.819652e-36
145	0x3e6b8192	0.22998646
146	0x3e5f9053	0.21832399
147	0xbebea97f	-0.3723869
148	0x055229e1	9.8818445e-36
149	0xbebd92e7	-0.3702614
150	0xbeb5ef2b	-0.35534033
151	0x3d179823	0.037010323
152	0x055cc82c	1.0381116e-35
153	0xbe9b29d5	-0.30305353
154	0x3e33d76c	0.17562646
155	0x05610c50	1.05817106e-35
156	0x3c82a78c	0.015949033
157	0x3e2ffbd7	0.17185913
158	0x3e52e306	0.20594415
159	0x3caa02b6	0.020753246
160	0x3ded9800	0.11601257
161	0x3e810aa5	0.25203434
162	0x3e7914c2	0.24324325
163	0x055c99fa	1.0372631e-35
164	0x3d11d9c5	0.03560807
165	0x3e328ea9	0.17437233
166	0x3e0f0bdd	0.13969369
167	0x3bfee108	0.0077782907
168	0x3e74a26d	0.23890086
169	0x3c5432d3	0.012951571
170	0xbeb6608f	-0.35620543
171	0xbe9d48e3	-0.3071967
172	0x3cfaad6b	0.03060027
173	0x3e5be691	0.21474673
174	0xbee8b5aa	-0.454511
175	0x3e689c9a	0.22715989
176	0x855e8465	-1.0462707e-35
177	0x3e9bfc27	0.30465814
178	0x3e947ca8	0.29001355
179	0xbef995e2	-0.48747164
180	0x0550aea3	9.812189e-36
181	0xbef971b0	-0.4871955
182	0xbef12150	-0.47095728
183	0x3d45446c	0.048160955
184	0x8553de8f	-9.96205e-36
185	0xbecf4b49	-0.40487126
186	0x3e6c1a34	0.2305687
187	0x05528345	9.898263e-36
188	0x3ca8b764	0.02059526
189	0x3e69e512	0.2284129
190	0x3e8c5a76	0.27412766
191	0x3cda937f	0.02668166
192	0x3dbb7869	0.09153826
193	0x3e49cea9	0.19707741
194	0x3e434901	0.19070818
195	0x05617cf9	1.0602403e-35
196	0x3ce528cb	0.027973553
197	0x3e09fc03	0.13475041
198	0x3ddf0cc9	0.108911105
199	0x3c07092b	0.008241932
200	0x3e3b345f	0.18281697
201	0x3c635c4c	0.013876986
202	0xbe8b836f	-0.27248713
203	0xbe714397	-0.2356094
204	0x3cc6049a	0.024172116
205	0x3e2a1139	0.16608132
206	0xbeb70151	-0.35743192
207	0x3e304d6f	0.17217039
208	0x0557bffd	1.0144514e-35
209	0x3e7232c9	0.23652185
210	0x3e6600a7	0.22461186
211	0xbec3cfca	-0.38244468
212	0x05548ab6	9.993669e-36
213	0xbec31b5c	-0.3810681
214	0xbebae04d	-0.36499253
215	0x3d19d19f	0.037553426
216	0x8559840f	-1.0227546e-35
217	0xbe9fbf80	-0.3120079
218	0x3e38a3f5	0.18031295
219	0x0559839d	1.02274645e-35
220	0x3c875c7b	0.01652359
221	0x3e34febe	0.17675301
222	0x3e58ce69	0.21172489
223	0x3cadb4cb	0.021204373
224	0xbdbdba19	-0.09264011
225	0xbe1abb2f	-0.15110467
226	0xbe31f7fd	-0.17379756
227	0x85545b6e	-9.984985e-36
228	0x3dc5165b	0.096234046
229	0xbe0bd7c4	-0.13656527
230	0xbd8fbede	-0.07018827
231	0x3dd2f841	0.10301257
232	0xbe50a69c	-0.20376056
233	0x3e297935	0.16550143
234	0x3eb94c32	0.36190945
235	0x3ea3ecb5	0.3201653
236	0x3da3fda9	0.08007366
237	0xbe1c712f	-0.15277551
238	0x3ee76014	0.4519049
239	0xbe53cbf7	-0.20683275
240	0x0549330f	9.4603526e-36
241	0xbe642b76	-0.22282204
242	0xbe427e27	-0.18993436
243	0x3ef36eb1	0.47545388
244	0x8550783d	-9.802197e-36
245	0x3f00c010	0.50293064
246	0x3ef7d0c9	0.48401478
247	0x3e0be136	0.1366013
248	0x055f505e	1.0500171e-35
249	0x3ec99d7c	0.39377964
250	0xbe291e8a	-0.16515556
251	0x054a3cb9	9.509147e-36
252	0x3d45094b	0.048104566
253	0xbe111a78	-0.14170253
254	0xbe249f72	-0.16076449
255	0x3d89fece	0.06738053

city2_net.2.bias f4 [32]
0	0x3d8f16ac	0.06986746
1	0x3dca599b	0.09880372
2	0x3de0a753	0.109694146
3	0x3dc03cdf	0.0938661
4	0x3d8bd239	0.06827206
5	0x3db6f0e3	0.08932664
6	0x3d903398	0.07041091
7	0x3e1c963c	0.15291685
8	0x3d86d3f5	0.06583396
9	0x3dcc5a8a	0.099782065
10	0x3de1add4	0.11019483
11	0x3d883944	0.066515476
12	0x3d94b2a5	0.07260636
13	0x3d91c28b	0.07117184
14	0x3dd1c292	0.102421895
15	0x3d90d2f6	0.070714876
16	0x3e12214a	0.14270511
17	0x3db05c11	0.0861131
18	0x3dbb5c0c	0.09148416
19	0x3da90d2f	0.08254468
20	0x3ddfe041	0.10931445
21	0x3d88c75c	0.0667865
22	0x3dcf98f0	0.101365924
23	0x35dfac1e	1.6664887e-06
24	0x3dadb7e9	0.08482344
25	0x3e1401bc	0.14453787
26	0x3d993aa0	0.07481885
27	0x3db8c8bd	0.09022663
28	0x3d95b8c9	0.073106356
29	0x3def800d	0.116943456
30	0x3d9249da	0.07142992
31	0x3d99db22	0.075124994

city2_net.4.weight f4 [1, 32]
0	0x3f8ccdb7	1.1000279
1	0xbf631a70	-0.88712215
2	0xbf6f9abc	-0.9359548
3	0x3fbf52ba	1.4947121
4	0x3f886bab	1.0657858
5	0x3fb4f134	1.4136109
6	0x3f8c4aab	1.0960287
7	0xbfa849e0	-1.3147545
8	0x3f83e96e	1.0305612
9	0x3fcc7182	1.597214
10	0xbf76227b	-0.96146363
11	0x3f855aeb	1.0418371
12	0x3f910843	1.1330646
13	0x3f8db938	1.1072149
14	0xbf5efa3b	-0.8710057
15	0x3f8baa19	1.0911285
16	0xbf9971c9	-1.198785
17	0x3fb08cf2	1.3793013
18	0x3fb870cb	1.4409422
19	0xbf4b8f4c	-0.7951553
20	0xbf7ca0d4	-0.98682904
21	0x3f8318f4	1.024199
22	0x3fcde410	1.6085224
23	0xb6c3b3a6	-5.8323667e-06
24	0x3fabc22b	1.341863
25	0xbf9d3414	-1.2281518
26	0x3f94c76c	1.1623359
27	0x3fb825cd	1.4386536
28	0x3f9213e1	1.1412317
29	0xbf7e7f00	-0.99412537
30	0x3f8dc83b	1.107673
31	0x3f970a87	1.1800088
